model/model.pth (torch, 17609 bytes, 4 tensors)

linear1.weight f4 [256, 11]
0	0x3d8a37f1	0.06748951
1	0xbe1aa4ee	-0.15101978
2	0x3c844002	0.016143803
3	0xbeb8f273	-0.36122474
4	0xbd4b53c9	-0.04964045
5	0x3e8738ef	0.26410624
6	0xbef148e5	-0.47125927
7	0x3e9f1578	0.31071067
8	0xbe9b5125	-0.30335346
9	0xbeb06aba	-0.34456426
10	0x3d9aa8e2	0.07551743
11	0xbe4d0992	-0.20023182
12	0xbe0a762b	-0.1352164
13	0x3f0206ab	0.50791425
14	0x3e1812e3	0.14850955
15	0x3e445869	0.19174351
16	0x3ea9a414	0.33132994
17	0x3f073233	0.5281097
18	0xbedd3b32	-0.43209225
19	0xbf0ef15f	-0.55837053
20	0x3e849f9b	0.2590302
21	0x3e1a98bb	0.15097325
22	0xbd765cee	-0.06014722
23	0x3f022f8c	0.508538
24	0x3eb4e625	0.35331836
25	0xbe2790d1	-0.16363837
26	0xbdaee5ae	-0.08539902
27	0xbd08d094	-0.03340204
28	0xbcb20ced	-0.02173468
29	0x3e9b8c52	0.30380493
30	0x3ea7e60a	0.32792693
31	0x3e97b63c	0.2963122
32	0x3e39eb1e	0.18156096
33	0x3d62e40e	0.05539327
34	0xbd90f6be	-0.07078312
35	0x3f19d970	0.6009741
36	0xbe1f9e29	-0.15587677
37	0xbea2f7ce	-0.31829685
38	0xbec780a0	-0.3896532
39	0xbe5e13f0	-0.21687293
40	0x3eb31c6a	0.34982616
41	0x3e6be116	0.23035082
42	0x3e5d3443	0.21601968
43	0xbdc22627	-0.09479933
44	0x3e92f4a3	0.28702268
45	0x3d050c5d	0.032482494
46	0x3ec975e4	0.39347756
47	0x3db12e10	0.08651364
48	0x3dd5b63d	0.1043515
49	0x3d8a24fc	0.067453355
50	0x3dc4ea37	0.096149854
51	0x3e8a7cf4	0.27048457
52	0x3e8d37ab	0.27581534
53	0x3e893750	0.26800013
54	0x3e6427f9	0.22280873
55	0xbde6107d	-0.11233614
56	0xbea1bddd	-0.31590167
57	0xbde4121a	-0.11136265
58	0x3ef467ad	0.47735348
59	0x3f1ea8f3	0.61976546
60	0xbe507eaa	-0.20360819
61	0xbc9c87c5	-0.019107709
62	0xbf186120	-0.595232
63	0xbf0ac948	-0.5421338
64	0x3eb5b395	0.35488573
65	0x3e47a863	0.19497828
66	0xbd62af33	-0.055342864
67	0xbe7468e9	-0.23868145
68	0x3d0759f6	0.033044778
69	0x3e20a6b3	0.1568859
70	0x3e76679d	0.24062963
71	0xbeb627a4	-0.35577118
72	0xbd85175f	-0.06498598
73	0xbf0ecaac	-0.55778
74	0xbe942cb6	-0.28940362
75	0x3ea8764b	0.3290275
76	0x3dba1ff0	0.09088123
77	0x3dc9fddc	0.09862873
78	0x3ef61e03	0.48069772
79	0xbe7734d2	-0.24141243
80	0x3e4f23e4	0.20228535
81	0xbefbbfd2	-0.49169785
82	0x3d0c3189	0.034226928
83	0xbe26616b	-0.162481
84	0xbe940416	-0.28909367
85	0xbe8f93d5	-0.28042474
86	0xbed727b6	-0.42022485
87	0x3e0ce268	0.13758242
88	0xbebef619	-0.37297133
89	0xbe399667	-0.1812378
90	0x3ea92ea2	0.3304339
91	0x3eda3c64	0.426242
92	0x3ec14d89	0.37754467
93	0xbdbb6805	-0.091506995
94	0x3d778043	0.060425054
95	0x3eaffdc1	0.34373286
96	0x3e92dcbd	0.28684035
97	0xbea0d593	-0.31412944
98	0xbebcb957	-0.36860153
99	0xbc8e0836	-0.0173379
100	0xbe17edaa	-0.14836755
101	0xbedef17a	-0.43543607
102	0x3eda4127	0.42627832
103	0x3eb4784c	0.3524803
104	0xbe665377	-0.22492777
105	0x3d11fafa	0.03563974
106	0xbe2a934a	-0.16657749
107	0xbe5f3eee	-0.2180135
108	0xbe7d68e6	-0.24747047
109	0x3c942c75	0.018087605
110	0xbed1714d	-0.40906754
111	0x3ea7999c	0.32734382
112	0x3c0fcb3c	0.008776482
113	0x3e973562	0.29532915
114	0x3e9d157b	0.3068045
115	0x3e767459	0.2406782
116	0x3e809e17	0.25120613
117	0xbdb3bfcc	-0.08776817
118	0xbe27d5cc	-0.16390151
119	0x3cf41f92	0.02980021
120	0xbd1b47db	-0.037910324
121	0x3ed132c2	0.40859038
122	0x3f1c7b77	0.6112589
123	0xbedbfc8f	-0.42966124
124	0xbea32047	-0.31860563
125	0x3e70927c	0.2349338
126	0xbe68e18e	-0.22742292
127	0x3b09c7c1	0.0021023604
128	0x3e844b29	0.25838593
129	0xbe329f82	-0.1744366
130	0x3e95eabe	0.29280657
131	0xbde6ac50	-0.11263335
132	0x3e1da975	0.15396674
133	0xbe5af960	-0.21384192
134	0x3ec50fee	0.38488716
135	0x3e0f0b15	0.13969071
136	0x3e3e0a6a	0.1855866
137	0x3d9dde8f	0.07708465
138	0x3e93e2a1	0.28883842
139	0x3ea3b62e	0.3197493
140	0x3eb10933	0.3457733
141	0x3cf80a7b	0.030278435
142	0xbe2d0c22	-0.1689916
143	0xbd8fed2e	-0.0702766
144	0xbe33edae	-0.17571136
145	0xbe7f0986	-0.24905977
146	0xbe51dd98	-0.20494688
147	0x3be88780	0.007096231
148	0xbdccf61e	-0.10007881
149	0x3bf7c800	0.0075616837
150	0xbd870e14	-0.06594482
151	0x3d053bb8	0.032527655
152	0xbd930570	-0.071787715
153	0xbbe5c0c0	-0.007011503
154	0xbe83d3f1	-0.25747636
155	0xbec120f0	-0.37720442
156	0x3e1daaab	0.15397136
157	0x3ede6d2b	0.43442664
158	0xbce52ef4	-0.02797649
159	0x3e2e8f58	0.17046869
160	0x3ecd4add	0.4009618
161	0xbcfbbca3	-0.030729597
162	0xbf30ec10	-0.691102
163	0x3e89ac5c	0.26889312
164	0x3e3f0ce0	0.18657255
165	0x3e96dca4	0.2946521
166	0xbe9caf76	-0.30602616
167	0xbc71b1b3	-0.014751839
168	0xbe9d3911	-0.307076
169	0x3dc54568	0.09632379
170	0x3e97312a	0.29529697
171	0xbe883f9a	-0.26611024
172	0x3e1faf1b	0.15594141
173	0xbe598178	-0.21240795
174	0xbe804665	-0.25053707
175	0x3e904be8	0.28182912
176	0xbe095893	-0.13412695
177	0xbe08ddbd	-0.13365836
178	0xbe943f83	-0.28954706
179	0x3ecb4f8c	0.39709127
180	0xbf08cc7b	-0.5343701
181	0xbefee79a	-0.49786073
182	0x3e022ef0	0.12713218
183	0xbe06d224	-0.131661
184	0xbf33e26b	-0.7026736
185	0xbf3c494e	-0.73549354
186	0x3e394d0b	0.18095796
187	0x3ebf21ae	0.37330383
188	0x3e8159b2	0.25263745
189	0xbd525b13	-0.051356386
190	0xbe1fefc5	-0.15618809
191	0xbdd1411c	-0.10217497
192	0xbe26cd23	-0.16289191
193	0xbdc3e9d2	-0.09566082
194	0x3e91bc9c	0.2846421
195	0x3e805b63	0.25069723
196	0x3e720016	0.23632845
197	0x3e3b7fb6	0.18310437
198	0xbe720334	-0.23634034
199	0x3efe8a97	0.4971511
200	0xbe705568	-0.2347008
201	0xbdf1efc1	-0.118133076
202	0xbded365c	-0.11582634
203	0x3dadb4a3	0.08481719
204	0xbd8ad56d	-0.06778989
205	0xbf009918	-0.502336
206	0xbf00f2e2	-0.5037061
207	0x3e7df8e9	0.24801983
208	0x3e800bfc	0.25009143
209	0xbc7cd449	-0.015431472
210	0xbb81c633	-0.0039603948
211	0xbda6fc47	-0.08153587
212	0x3e9ec8d3	0.31012592
213	0xbd545648	-0.051840097
214	0x3efb6146	0.4909765
215	0xbde8bd86	-0.11364274
216	0xbe5f4b36	-0.21806034
217	0x3e8b1486	0.27164096
218	0xbeb86ef3	-0.36022148
219	0xbeb814ed	-0.35953465
220	0xbea3a96e	-0.31965202
221	0x3dd8ef93	0.1059257
222	0x3eed7c8d	0.46384087
223	0x3e3994f3	0.18123226
224	0xbe13b975	-0.14426215
225	0xbd4c6a25	-0.049905915
226	0x3e60dcd3	0.21959238
227	0x3dfd25fb	0.1236076
228	0xbe9d9fef	-0.30786082
229	0xba9df5fe	-0.0012051461
230	0xbdd72b2c	-0.10506281
231	0x3d1a68c5	0.037697572
232	0x3ce09fad	0.02741989
233	0x3da98300	0.082769394
234	0xbf149b05	-0.5804904
235	0xbe090451	-0.13380553
236	0x3e1a581f	0.15072678
237	0xbf0bb760	-0.54576683
238	0xbec5ca5c	-0.3863095
239	0xbf09e2eb	-0.53861874
240	0x3eb3d64e	0.3512444
241	0xbeb27d00	-0.34860992
242	0xbdfa6bda	-0.12227602
243	0xbe8db1ba	-0.27674657
244	0xbc8c454d	-0.017122889
245	0x3e4d5468	0.2005173
246	0xbebd7f47	-0.37011167
247	0xbe9af2a0	-0.30263233
248	0x3e1c082b	0.15237491
249	0xbe8bf81a	-0.27337724
250	0xbf0ca897	-0.5494475
251	0x3d887e67	0.06664734
252	0xbf051e75	-0.519996
253	0xbdb10c6b	-0.08644947
254	0x3f047d41	0.5175362
255	0xbd83274b	-0.06403979

linear1.bias f4 [256]
0	0xbbcf60dc	-0.006328685
1	0x3b96f52c	0.0046068635
2	0xbe37af40	-0.17937946
3	0x3d7fac5d	0.062420238
4	0xbed269ae	-0.41096252
5	0xbe1df2be	-0.1542463
6	0xbdb19582	-0.086710945
7	0x3dc52b27	0.09627371
8	0xbd94bc4a	-0.07262476
9	0x3f4f916c	0.8108127
10	0x3e99b9ae	0.30024475
11	0xbe1886d0	-0.14895177
12	0xbe7dff45	-0.24804409
13	0xbe291b9d	-0.1651444
14	0x3e4394e1	0.19099762
15	0x3c5c6307	0.013451344
16	0x3e96ae7d	0.2943
17	0xbe2c0013	-0.16796903
18	0x3ea39e39	0.31956652
19	0xbe50398e	-0.20334455
20	0x3c81d50a	0.015848655
21	0x3dfcc888	0.12342936
22	0x3e85b289	0.26112774
23	0xbddab762	-0.10679509
24	0xbe349795	-0.17635949
25	0xbdf4ab40	-0.11946726
26	0xbe25fb94	-0.1620925
27	0x3f1f9e6f	0.62351125
28	0x3e22ab1d	0.15885587
29	0xbe83a66d	-0.2571291
30	0xbdc7cd21	-0.09755922
31	0x3f530416	0.8242811
32	0xbe01135a	-0.12605038
33	0x3e116d34	0.14201814
34	0x3e5536c7	0.20821677
35	0xbe1bf734	-0.1523102
36	0x3de4d480	0.11173344
37	0xbe3eb24d	-0.18622704
38	0xbea20217	-0.3164222
39	0xbea3ccef	-0.3199229
40	0xbe212bc1	-0.15739347
41	0xbe3435a3	-0.17598586
42	0x3e03d057	0.12872444
43	0xbe412071	-0.18860032
44	0xbc9ba711	-0.019000562
45	0xbe5c01a7	-0.21485005
46	0xbe4255e5	-0.18978079
47	0xbcc79395	-0.024362365
48	0x3e1271eb	0.14301269
49	0xbe02be4e	-0.12767908
50	0x3dab4313	0.08362403
51	0xbe3a8899	-0.1821617
52	0xbc3d9e29	-0.011573353
53	0x3e83e88e	0.25763363
54	0x3e496645	0.19667919
55	0x3e2673a4	0.16255051
56	0x3e39ccad	0.18144484
57	0xbe94fbfa	-0.29098493
58	0xbe8f9f19	-0.2805107
59	0x3cddf0ab	0.027092298
60	0xbda706de	-0.08155607
61	0x3e8b3055	0.27185312
62	0x3d44c367	0.048037913
63	0xbec57910	-0.38568926
64	0xbe0aadc5	-0.1354285
65	0x3c62ebf3	0.0138502
66	0xbd2c5949	-0.042077336
67	0x3e1d92af	0.15387987
68	0xbe16f8ba	-0.14743319
69	0xbf013cf9	-0.5048366
70	0xbe74f363	-0.2392097
71	0xbe5c1910	-0.21493936
72	0xbe75e921	-0.24014713
73	0x3ef2849f	0.47366807
74	0xbcdb4656	-0.026766937
75	0x3e567a07	0.20944987
76	0xbe24758a	-0.16060463
77	0xbe62e003	-0.22155766
78	0xbe00a204	-0.12561804
79	0xbdb20776	-0.08692829
80	0x3e679b65	0.22617872
81	0xbe473c92	-0.194567
82	0x3d167fbb	0.036742907
83	0xbd9f0163	-0.07763936
84	0xbe72e840	-0.23721409
85	0xbe78a28e	-0.2428076
86	0x3db12d1a	0.086511806
87	0x3d2295dc	0.0396937
88	0x3e26c7de	0.16287181
89	0x3f2b079c	0.66808486
90	0x3eafa2f0	0.34304
91	0x3ecb584e	0.3971581
92	0xbe693042	-0.22772315
93	0x3ee5c11d	0.44873896
94	0xbe2d18a5	-0.16903932
95	0xbe1fd776	-0.15609536
96	0xbe50bfb7	-0.20385633
97	0x3d5b5f37	0.0535576
98	0xbe86b119	-0.2630699
99	0xbee5cd70	-0.448833
100	0xbe3a2152	-0.18176773
101	0x3e2261c6	0.1585761
102	0xbe6dffc1	-0.23242094
103	0xbe02b236	-0.12763295
104	0xbe94c832	-0.29058987
105	0x3ea03e90	0.3129773
106	0xbe26ad1b	-0.16276972
107	0xbe21d930	-0.15805507
108	0x3d939836	0.07206766
109	0x3d6cdc5d	0.057827342
110	0xbe63658f	-0.2220671
111	0xbda72349	-0.08161027
112	0xbe433cdd	-0.19066186
113	0xbd3b0972	-0.045663305
114	0xbe6819ae	-0.22666046
115	0xbc680bd7	-0.014162979
116	0xbdff4553	-0.124643944
117	0xbd8af0c3	-0.06784203
118	0xbe84f6e5	-0.25969616
119	0xbdbab378	-0.09116262
120	0xbd0707d5	-0.032966454
121	0x3ed4fd08	0.41599298
122	0xbd21f26e	-0.03953784
123	0xbe796ce8	-0.2435795
124	0x3d9988ff	0.07496833
125	0xbdaf8bea	-0.08571608
126	0xbdcff335	-0.1015381
127	0x3cf1fea5	0.02954037
128	0xbe9c6f89	-0.30553845
129	0x3d25476e	0.040351324
130	0xbe7da189	-0.24768652
131	0xbe312ac4	-0.1730147
132	0x3e2f60e3	0.17126803
133	0xbdb20f62	-0.0869434
134	0xbe2d57e5	-0.1692806
135	0xbda756f4	-0.08170882
136	0xbd82eacc	-0.0639244
137	0xbe06dcdc	-0.13170189
138	0xbec3b1d3	-0.38221607
139	0xbe255c4b	-0.16148488
140	0xbb20371a	-0.0024446906
141	0xbe0d8924	-0.13821846
142	0xbd8cdc44	-0.0687795
143	0x3dec4c7b	0.11538025
144	0xbe92cef4	-0.28673518
145	0xbeda5e1b	-0.42649922
146	0xbea57b97	-0.32320854
147	0xbd3e6855	-0.046486218
148	0xbe4b7db0	-0.19872165
149	0x3e7f00fe	0.24902722
150	0x3e2c354f	0.1681721
151	0xbdc45b18	-0.09587687
152	0x3d68da91	0.056849066
153	0xbe734517	-0.23756824
154	0xbd8f0834	-0.069839865
155	0x3e1ac85b	0.15115492
156	0x3e9203cd	0.28518525
157	0xbe82f213	-0.25575313
158	0x3f08fa07	0.5350651
159	0x3e903703	0.2816697
160	0xbe70a15e	-0.23499057
161	0x3d014c64	0.031566992
162	0xbe324171	-0.17407776
163	0xbe3ea677	-0.18618189
164	0xbe9ebbd9	-0.3100269
165	0xbe0b45d7	-0.1360086
166	0xbd292bd5	-0.041301567
167	0x3dd23b9a	0.10265274
168	0xbd82d80a	-0.063888624
169	0xbe36ddc0	-0.17858028
170	0x3e96375b	0.29339108
171	0xbe9ecfd4	-0.31017935
172	0x3dce4d65	0.100733556
173	0xbe11a0cc	-0.14221495
174	0xbe9c55a3	-0.30534086
175	0xbcfe80b2	-0.031067226
176	0xbe5b5a4d	-0.21421166
177	0x3e796bd5	0.24357541
178	0x3e4ef65a	0.20211163
179	0xbdfc0b1c	-0.123068064
180	0xbe9597ec	-0.2921747
181	0xbbd560d2	-0.006511786
182	0x3ebc0b21	0.3672724
183	0x3d1d13ed	0.03834908
184	0xbd9959c5	-0.07487825
185	0x3d971022	0.07376124
186	0x3d8968f4	0.06709471
187	0xbe9912b4	-0.29897082
188	0xbe14ecec	-0.14543504
189	0x3eafcf40	0.34337807
190	0x3da22401	0.079170235
191	0xbe090fab	-0.13384883
192	0x3d729331	0.059222404
193	0x3d3824d7	0.04495701
194	0xbe15c49c	-0.14625782
195	0xbe3ed572	-0.1863611
196	0x3e841314	0.25795805
197	0xbed701b9	-0.41993502
198	0xbe0105d5	-0.12599881
199	0x3cd1a338	0.025590524
200	0x3e111952	0.14169815
201	0xbc39574a	-0.011312315
202	0xbe6edada	-0.23325673
203	0xbdcd99f8	-0.10039133
204	0xbce9de9f	-0.028548537
205	0x3e8054ff	0.25064847
206	0x3e4a842f	0.19776987
207	0xbe32352e	-0.17403099
208	0xbe5c20d2	-0.21496895
209	0x3de7d8ac	0.11320624
210	0xbd59ff42	-0.05322195
211	0xbe47bdcd	-0.19505997
212	0x3ec2f1d6	0.3807513
213	0x3cfd75de	0.030939993
214	0xbdcea438	-0.10089916
215	0x3e84a3a8	0.2590611
216	0xbeb49eb5	-0.35277334
217	0xbd854989	-0.06508166
218	0xbe07c6fd	-0.13259502
219	0xbdd7b50e	-0.1053258
220	0xbd450a84	-0.04810573
221	0x3e37c00f	0.17944358
222	0xbe1e6d75	-0.15471442
223	0xbdb280bd	-0.08715961
224	0x3c6d04f3	0.014466512
225	0xbe05fbb9	-0.13084306
226	0xbcbff71a	-0.023433257
227	0x3dc7ebc9	0.09761769
228	0x3d2a1ee3	0.041533362
229	0xbd8653ea	-0.06558974
230	0xbe544e07	-0.2073289
231	0xbd2b49de	-0.041818492
232	0xbd98fee7	-0.07470494
233	0x3d8fbd97	0.07018583
234	0xbbda7a02	-0.0066673765
235	0x3e2423b3	0.16029243
236	0x3db0fe30	0.086422324
237	0xbcccbbe9	-0.024991946
238	0xbe0b390b	-0.13595979
239	0x3e35622a	0.17713228
240	0x3de0744e	0.10959683
241	0xbd91ca61	-0.07118679
242	0xbe6516cb	-0.22371976
243	0xbdc72abe	-0.09724949
244	0x3df18cf3	0.11794462
245	0xbe3be1d4	-0.18347865
246	0xbdbfea49	-0.09370858
247	0x3cd91ecb	0.026503941
248	0xbebe003e	-0.3710956
249	0x3f24decf	0.6440248
250	0x3e41ca17	0.18924747
251	0xbe9c5727	-0.30535242
252	0xbf02cff7	-0.5109858
253	0x3e64c996	0.22342524
254	0xbd7b25a3	-0.06131519
255	0x3d936620	0.07197213

linear2.weight f4 [3, 256]
0	0xbead211d	-0.33814326
1	0x3ec2d180	0.3805046
2	0xbd96a51f	-0.07355713
3	0xbd54382f	-0.051811393
4	0xbe3781b3	-0.1792057
5	0xbece79b6	-0.40327233
6	0xbe8abb75	-0.27096143
7	0x3d2ef32b	0.04271237
8	0x3ec6d1d0	0.3883195
9	0x3e98d825	0.29852405
10	0x3e8a9252	0.2706476
11	0xbe80b768	-0.25139928
12	0xbd0fc23b	-0.035097342
13	0xbd402d8c	-0.046918437
14	0x3eae4bf1	0.34042314
15	0xbe05ea2f	-0.13077615
16	0x3ed43905	0.41449752
17	0xbe269b34	-0.16270143
18	0x3e659aa6	0.22422275
19	0xbf079cee	-0.5297383
20	0x3de2067d	0.11036394
21	0x3eaaa69e	0.33330244
22	0xbbbe20a6	-0.005802232
23	0x3df7a8ce	0.12092744
24	0xbe93bc99	-0.28854826
25	0xbe22e3db	-0.15907232
26	0x3df475b9	0.11936516
27	0x3e7b475e	0.24538943
28	0xbd140806	-0.036140464
29	0xbe3c89a6	-0.18411884
30	0xbe3f2b70	-0.18668914
31	0x3e3b5c34	0.18296891
32	0xbd9e1a45	-0.07719854
33	0x3d9cf0a2	0.076630846
34	0x3e4e4f78	0.20147502
35	0xbd86f7d7	-0.065902404
36	0xbbb6c109	-0.005577211
37	0xbeb220a3	-0.34790525
38	0xbd83eea9	-0.06442005
39	0xbe8e9fb0	-0.27856207
40	0xbee432e0	-0.44570065
41	0xbecf2376	-0.40456742
42	0x3e8fc653	0.28080997
43	0xbe55cc2b	-0.20878665
44	0x3a330474	0.00068289717
45	0xbe1beae5	-0.15226324
46	0xbd1ad2f1	-0.037798826
47	0x3ddfa8b1	0.10920847
48	0x3e0c9a79	0.13730802
49	0xbeb5284d	-0.3538231
50	0x3c890dbd	0.016730184
51	0x3e3af7c8	0.18258584
52	0xbed4d3c6	-0.4156782
53	0x3ecc3b87	0.39889166
54	0x3ec569a1	0.3855715
55	0x3e2333a8	0.15937674
56	0x3e56af3a	0.20965281
57	0xbdead0f4	-0.11465636
58	0xbe806ab7	-0.25081417
59	0x3e435230	0.19074321
60	0x3ec40c7f	0.38290784
61	0x3dfda665	0.12385253
62	0xbf1d4e91	-0.6144801
63	0xbe6584e1	-0.2241397
64	0xbf1a17a8	-0.60192347
65	0x3e86d917	0.263375
66	0xbea84de6	-0.32871932
67	0x3edb8f96	0.42882985
68	0xbdcad5d3	-0.09904065
69	0xbc56324a	-0.013073513
70	0xbe3652e6	-0.1780506
71	0xbd651ad4	-0.05593379
72	0xbe30d593	-0.17268972
73	0x3e9910a7	0.29895517
74	0x3ea238ff	0.3168411
75	0x3e5d5941	0.21616079
76	0xbdd5e608	-0.104442656
77	0xbdb77ab5	-0.089589514
78	0xbdd48882	-0.10377599
79	0x3d09527a	0.03352592
80	0x3e992798	0.2991302
81	0xbf1ad85b	-0.6048638
82	0xbc689d0a	-0.014197597
83	0x3d494303	0.049136173
84	0xbeac2fbe	-0.33630174
85	0xbf3f21f7	-0.746612
86	0xbecc56d7	-0.39910004
87	0x3d1bf17c	0.038072094
88	0x3ed38ee0	0.41319942
89	0x3e36ad22	0.17839482
90	0x3e039eb2	0.12853506
91	0x3da0802a	0.07836945
92	0xbe80b01e	-0.25134367
93	0x3f15af1b	0.58470315
94	0xbec18d2c	-0.37803018
95	0xbe1c9a6e	-0.15293285
96	0xbdf8ba5c	-0.1214492
97	0xba8365b0	-0.0010024812
98	0xbe2ff0f5	-0.17181762
99	0xbd801f10	-0.06255925
100	0xbe97c0bd	-0.29639235
101	0x3eb77f1f	0.35839173
102	0xbe9fa580	-0.31180954
103	0xbe2971c5	-0.16547306
104	0xbec6236b	-0.38698897
105	0x3ea3e759	0.32012442
106	0xbd578a0f	-0.052621897
107	0x3ea42939	0.320627
108	0xbef079e4	-0.46967995
109	0x3ec05d9a	0.37571412
110	0xbe78d32d	-0.24299307
111	0xbe30664a	-0.1722652
112	0xbdf0e11f	-0.117616884
113	0x3e3faf65	0.18719251
114	0xbead6b92	-0.33871132
115	0x3e1c33e3	0.15254168
116	0xbcf41570	-0.029795378
117	0xbee09225	-0.438615
118	0xbe0d2463	-0.13783412
119	0xbe9304bd	-0.28714553
120	0x3ed278e1	0.41107848
121	0x3de6e21b	0.11273595
122	0x3ec684df	0.38773248
123	0xbe4e5ce1	-0.20152618
124	0x3d00bd91	0.031430785
125	0xbeabf288	-0.33583474
126	0xbb08ae4e	-0.0020855847
127	0xbef3335d	-0.47500125
128	0xbcc99deb	-0.024611434
129	0x3c86cb6a	0.016454417
130	0xbeb37527	-0.35050318
131	0xbd99ed73	-0.07515993
132	0x3e818bfe	0.25302118
133	0xbd82227d	-0.06354234
134	0xbdb8b5ef	-0.09019076
135	0xbd109cd5	-0.035305817
136	0x3e65901b	0.22418253
137	0xbdef6704	-0.116895705
138	0xbcef6c14	-0.02922634
139	0xbeb26707	-0.3484423
140	0xbf32599d	-0.6966799
141	0xbc2caa38	-0.01053863
142	0x3e1fe218	0.15613592
143	0xbd5f24aa	-0.054478325
144	0xbb3cd015	-0.002881055
145	0x3c9a172c	0.018809877
146	0xbd36a742	-0.044593103
147	0x3d84050e	0.064462766
148	0xbea9a71b	-0.33135304
149	0x3df11535	0.11771623
150	0x3ed559b6	0.41670007
151	0x3cf3b63e	0.029749986
152	0xbe67606e	-0.22595379
153	0xbd390f45	-0.045180578
154	0x3e28b862	0.16476586
155	0x3dcac481	0.099007614
156	0x3ec472e4	0.38368905
157	0xbe04c4fc	-0.12965769
158	0x3ef81f20	0.48461246
159	0x3e808695	0.25102678
160	0xbe92bfaa	-0.28661853
161	0x3dcdda6b	0.100514255
162	0xbdb66db4	-0.08907643
163	0xbd7a549d	-0.06111585
164	0xbcfababe	-0.030606624
165	0xbed19d76	-0.40940446
166	0x3ce4ce97	0.027930541
167	0x3e184742	0.14870933
168	0x3c1bf145	0.009517972
169	0xbc3fbf31	-0.011703298
170	0x3df20e3c	0.11819121
171	0x3bd93845	0.0066290223
172	0x3c1fcc84	0.00975335
173	0xbdaa24fc	-0.083078355
174	0xbec1989b	-0.3781174
175	0x3e3735b4	0.1789158
176	0xbdd29b98	-0.102835834
177	0x3dd741ff	0.10510635
178	0x3e728472	0.23683336
179	0xbdef128e	-0.11673461
180	0xbd6591ec	-0.056047365
181	0x3e5739d1	0.21018149
182	0x3db15f82	0.08660795
183	0xbea06ad6	-0.3133151
184	0xbe32f958	-0.1747793
185	0x3e820b8c	0.25399435
186	0xbc5452e2	-0.012959214
187	0xbef25dd4	-0.4733721
188	0xbd7e6c94	-0.062115267
189	0x3e8d66ae	0.276174
190	0x3e637b9a	0.22215119
191	0xbd41f253	-0.04735024
192	0xbdf34c90	-0.118798375
193	0x3c3e3e8a	0.01161159
194	0x3e28cc5c	0.16484207
195	0xbe378af8	-0.17924106
196	0x3dccbe75	0.09997264
197	0xbe383a8e	-0.17991087
198	0x3ce6f96b	0.028195104
199	0x3e77db24	0.2420469
200	0xbd3736da	-0.044730045
201	0x3ee4d572	0.44694096
202	0xbe98e74f	-0.29863974
203	0xbdf3233b	-0.11871954
204	0xbea99acc	-0.33125913
205	0x3e12a795	0.1432174
206	0x3e95be48	0.29246736
207	0x3dba7f2d	0.09106288
208	0xbe9fd38d	-0.31216088
209	0x3d1b281e	0.037880056
210	0xbf113659	-0.5672355
211	0xbdf85526	-0.12125616
212	0x3e6c4a5a	0.23075238
213	0xbe930e5e	-0.287219
214	0xbdce3341	-0.1006837
215	0x3ed5fc4e	0.41794056
216	0xbe587d8d	-0.21141644
217	0xbdf91849	-0.12162835
218	0x3d3d05ce	0.046148114
219	0xbeda6ceb	-0.42661223
220	0xbd97080a	-0.0737458
221	0x3c8bc9ea	0.017064054
222	0xbdba0f36	-0.090849325
223	0x3e7d16f5	0.24715789
224	0xbd1ff496	-0.039051615
225	0xbd64a910	-0.055825293
226	0xbd2dfd84	-0.0424781
227	0x3eac917f	0.33704755
228	0x3e8b967f	0.27263257
229	0xbd7c6ab3	-0.061625194
230	0xbd4ae760	-0.049537063
231	0xbe9017c9	-0.28143147
232	0xbd4af10d	-0.04954629
233	0xbec3a471	-0.38211396
234	0x3d8d8e1e	0.06911872
235	0x3efb34bf	0.4906368
236	0x3df48a3b	0.11940428
237	0xbe1c7aec	-0.15281266
238	0x3d38c0cd	0.045105744
239	0x3e423499	0.18965377
240	0x3e5deaa2	0.21671537
241	0xbe61b08b	-0.22040002
242	0xbec8496a	-0.3911851
243	0xbd995084	-0.0748606
244	0xbe99719b	-0.29969487
245	0xbd53d792	-0.051719256
246	0x3d17df7e	0.037078373
247	0xbe361887	-0.17782794
248	0x3cd3d473	0.02585814
249	0x3e5afce1	0.21385528
250	0x3dbb91dc	0.0915868
251	0x3e796d39	0.24358071
252	0xbe060c48	-0.13090622
253	0x3f1415a3	0.57845515
254	0xbf0a6182	-0.54055035
255	0x3e03f0dc	0.1288485

linear2.bias f4 [3]
0	0x3e7e1c79	0.24815549
1	0x3d724df1	0.059156362
2	0x3d754f04	0.05988981
