model/model.pth (torch, 17609 bytes, 4 tensors)

linear1.weight f4 [256, 11]
00000000: d415 a7bc 5a9f f73e 6dfd 86be 3063 25be
00000010: 8d08 b23e 6f14 f3bd 7e21 963c 6904 08be
00000020: c1d9 903e fa6b ab3d 366d 51be 8702 3bbe
00000030: 137f 6e3e 83f3 7bbe d597 003e 52d5 e1bb
00000040: 08f2 a2bd 849b 56be 6235 223e 93bf 363e
00000050: 4b1a 72bd 9c2c 82be 6da3 8c3e 100b b2be
00000060: 55a3 cc3e 0acf efbc 1093 a0be e74d ffbd
00000070: a476 09be c07d 2d3d 87d5 8f3e 4cec 973e
00000080: 5522 813e f33d 223f 593e 863e 08ef d1be
00000090: 13a1 743e 1168 403e 64ab 5ebd 86b0 0e3e
000000a0: ff0c 11bd 0a46 3ebc 96cf 2cbd 910f 673e
000000b0: 6e52 e33e bc9a 83bd ed36 873e c82a 383e
000000c0: f966 353e fe79 643e b930 8b3d 2a16 283e
000000d0: aeb8 3f3e 4da8 373e 934d 863d 5031 a9be
000000e0: 2e97 33be 65e1 1b3e bdf4 b03e de4b 903e
000000f0: 2839 0cbe 642c 8dbe 88b2 873e 18ab 453e
00000100: 78cb cfbd 1fde 18be 0d4d 143e cf1f 063d
00000110: 705b e0bd 5473 5ebc 8b09 893d 6622 a9bd
00000120: c018 563e 5bd4 02bd b187 53be 0767 7abd
00000130: 1bed cd3d 4293 edbe c6cf f3bd 8bfe adbe
00000140: 715a 73be b8cd b03e 85a2 aa3e 5d65 833e
00000150: 9616 9bbe 6e4c f7bd fb30 8a3e 8eb3 bf3d
00000160: 73bf 96be 45e1 3abe 5096 debd c074 863e
00000170: 967e 2fbe 00e3 d33d 644a 4a3e 5f2a 2f3e
00000180: ced6 a9bc 7746 83bd 22a0 1cbe 5669 083c
00000190: ddd0 c33e 68a4 b1be 99f8 4e3e 4e46 6abd
000001a0: 1a90 8cbd 4aef 833d fd7e 113e aa73 2fbd
000001b0: a4f7 28be ef2c 023e 9427 c43e f780 90ba
000001c0: e121 083d 4957 a4be 781d abbc c21a a93d
000001d0: b648 ac3d 5792 723e 4cbd cdbd fd4b 9a3d
000001e0: 48a0 62be f748 43be b06e c23e 92d5 0ebb
000001f0: 3412 373e 06a9 7e3d 208c 83be 72a7 a33d
00000200: 2006 37be 8dda 853d c725 84be f821 223e
00000210: 7360 fdbd 2b45 adbe ee99 243e 6aac 543e
00000220: 9985 8ebe 391e 1f3c a6f5 573e 0ffd 3bbe
00000230: deaf 863e 216a be3d 93f9 58be 3263 ed3e
00000240: 2ffa 033f f652 82be 85ff 303d 6264 f1bd
00000250: 1722 013d e33a 59bd ddd4 a13e 86d7 783e
00000260: 3ffe 483d cb61 383e 72a5 ddbd a1e7 d63e
00000270: b410 91be 8340 dabb 5af1 0f3e 94d1 fd3d
00000280: a533 353e 6343 2ebd 273c 9d3d 5f36 b53d
00000290: 59ae 813d 1a50 1f3f c267 db3e 8e70 aebe
000002a0: 7e78 4b3e a9af c8bd e8ee 2bbe 8f29 88bc
000002b0: 1ccf 42be 8b00 a4bd faf5 f0bd 24df 00be
000002c0: ac68 4dbe ba42 033d 9c97 0fbe ed19 94be
000002d0: cae7 69be f846 b8bd 4648 a4be ebdc 8ebe
000002e0: eaeb 07be 6c0c 533d 5ab7 3bbe ea0a 36be
000002f0: df5e 40be 9f86 d63e 75f2 8d3c 252f 36bc
00000300: f3c6 d0bc c9aa 3f3e c0b0 dabd 5ee6 6b3d
00000310: 57b4 dcbc 4332 6dbe e5a6 31be 5749 c73e
00000320: 5798 2fbe 3b07 673e 5a3c 4bbd d803 5c3c
00000330: eb3a b23e 1a2c 25be a962 66be d433 06be
00000340: a590 a2bd 5a97 b43d 4d76 e5bd 4ed1 65be
00000350: ec18 4e3e 25ea eb3d 93ae 82be 8901 ba3e
00000360: eb11 00be 0aad 86bd 3f32 963e 13b6 a2be
00000370: 174a f2bd be9c a1be fcc5 c0bd a70f bfbd
00000380: e060 48bc 16c4 393e 5369 97be 4e62 48be
00000390: c45e 1bbd d657 9ebe 0cd4 793e e0c7 9ebe
000003a0: ee16 8fbd bdd6 413d 4a46 243e de36 df3d
000003b0: 1693 a33d 2698 69be 9116 b93d a112 3e3e
000003c0: b405 20bd fd24 20be f957 48be 4507 9b3d
000003d0: 1b25 d03e a9e6 3d3d e7a2 2abe 4934 6bbd
000003e0: 29da 403c ed90 8ebc cfd7 373e ad99 263e
000003f0: 34db a2bd 522d e93b e4a8 75be a759 66be
-0.02039615 0.48363763 -0.26365224 -0.16151118 0.3477215 -0.11869132 0.018326517 -0.13282932
0.28291133 0.08370204 -0.20451817 -0.18262683 0.23290662 -0.24604611 0.1255792 -0.006891885
-0.0795632 -0.20957762 0.15840676 0.17846517 -0.059107106 -0.2542466 0.27468434 -0.34774065
0.39968362 -0.029273529 -0.313622 -0.124660306 -0.13424164 0.042356253 0.28092596 0.29672468
0.25221506 0.63375777 0.26219442 -0.4100268 0.2388957 0.18789698 -0.05436267 0.13934526
-0.035412785 -0.011613378 -0.042190157 0.22564532 0.44398826 -0.064259976 0.26409093 0.1798507
0.17715062 0.22312161 0.067964025 0.16414705 0.18722793 0.17935295 0.06557765 -0.33045435
-0.17538139 0.152227 0.3456172 0.28182882 -0.13693678 -0.2757293 0.26503396 0.19303548
-0.101462305 -0.14928482 0.14482518 0.03274518 -0.1095494 -0.013577301 0.06691273 -0.08258514
0.20907879 -0.0319408 -0.20657231 -0.06113341 0.1005499 -0.4640141 -0.11904864 -0.33983263
-0.2376497 0.3453195 0.33327118 0.25663272 -0.3029067 -0.12075125 0.26990494 0.09360419
-0.2944294 -0.18249996 -0.108685136 0.26260948 -0.17138132 0.10346031 0.1975494 0.17106007
-0.02073231 -0.064099245 -0.15295461 0.008325895 0.38245288 -0.34695745 0.2021202 -0.057195954
-0.06863423 0.06442125 0.14208598 -0.042834915 -0.16500717 0.12712453 0.38311446 -0.0011024763
0.033235434 -0.32097843 -0.020888075 0.08257057 0.08412306 0.23688637 -0.10045871 0.07534025
-0.22131455 -0.19070803 0.37975073 -0.0021794778 0.17878038 0.062172912 -0.25692844 0.07990922
-0.1787343 0.06535826 -0.25810072 0.1583327 -0.12371912 -0.33841833 0.16074345 0.20768896
-0.27836302 0.0097117955 0.21089801 -0.18358253 0.2630605 0.09297586 -0.21188955 0.46364743
0.51553625 -0.2545392 0.043212432 -0.117867246 0.03152665 -0.053034674 0.31607714 0.24300966
0.049070593 0.18006055 -0.10822572 0.41973594 -0.28333056 -0.0066605224 0.14056912 0.123934895
0.17695482 -0.042544734 0.07677489 0.08848261 0.06332082 0.622316 0.42852598 -0.34070247
0.19870183 -0.097991295 -0.16790354 -0.01662138 -0.19024318 -0.08007916 -0.11765666 -0.12585121
-0.2005946 0.032046057 -0.14022678 -0.2892603 -0.22842327 -0.08997911 -0.3208639 -0.27902922
-0.13273588 0.05152552 -0.18331662 -0.17777601 -0.1878619 0.41899583 0.017327527 -0.011119639
-0.025485491 0.18717493 -0.10678244 0.057592742 -0.026941461 -0.23163705 -0.17348821 0.3892314
-0.17147957 0.22561352 -0.049618103 0.013428651 0.34810576 -0.16130105 -0.22498573 -0.13105708
-0.07937745 0.088179305 -0.11204205 -0.22443125 0.20126694 0.11519269 -0.25523815 0.36329296
-0.12506835 -0.06575973 0.2933521 -0.31779537 -0.11830538 -0.31564897 -0.094127625 -0.09329157
-0.012230128 0.18141207 -0.29572544 -0.1956875 -0.037932172 -0.30926389 0.24397296 -0.31011868
-0.06986795 0.04732393 0.16042438 0.10899137 0.07987039 -0.22811946 0.09037507 0.18561794
-0.03906794 -0.1563911 -0.19564809 0.07569746 0.4065331 0.046362553 -0.16663705 -0.05742291
0.011770763 -0.01740309 0.17953418 0.1626956 -0.07951966 0.0071159983 -0.23990208 -0.22495137

linear1.bias f4 [256]
00000000: 6dc1 38be 451d 743e 5a07 283c a456 a73d
00000010: 559d 10be a0ea f3bd 5a70 8abe fcef dbbb
00000020: 5ce9 acbe a423 3fbb 0c4e b83d fe60 1a3e
00000030: dc96 00bd aae5 9abd 1913 9bbc 7da7 613e
00000040: c685 333c 27f0 283e 510c f33c 5372 debd
00000050: c38b eb3d 4f88 e83c 16e6 42be fb11 423d
00000060: bf71 413e 4cf2 4ebe e3fe fbbd d47b 0b3d
00000070: b967 bcbc 1ed4 3abe a23e 49bb 74d2 5f3e
00000080: cd0b 13be 1b13 10be 9a74 53be 2312 5a3e
00000090: 0e78 aabb 6fdf 913b 9b55 26be ae7a 71be
000000a0: 2d20 e13d 5a17 6f3d 6a94 1cbd b2b1 dc3d
000000b0: 1ef8 0e3e d302 fa3d 6aac 9bbd 6667 d2bb
000000c0: 323f 143d 6acf 5dbe e17e 2bbe 2574 53be
000000d0: ebf1 80be 8c15 9e3d bd21 45be 039c 4c3d
000000e0: 7b0e fabc 92d1 82bd a4de 843e b36d ddbd
000000f0: f9c5 b6bd dc5d 8a3d 44c0 f8bd 192e 30be
00000100: c860 203e 5729 5cbe 5bb4 9c3d 2d94 cd3d
00000110: a00f bbbe d7d5 13be 50f7 25be a44d 4abe
00000120: d905 5e3d 3166 823e a529 0cbd 2424 9f3e
00000130: 7396 2c3e 9457 01bd 8d51 ad3d 3a83 9b3d
00000140: 5662 8bbe b14b 813b 5008 babd 5371 4a3d
00000150: d0cf 9b3e 2df0 643e afb1 573e 9401 603d
00000160: 9f21 f1bd efd0 d13d 3a34 d1bc d35d 8cbd
00000170: 5cd3 3b3e e008 a73d 5590 5abe 8995 dd3d
00000180: ba8a 853e ed93 6b3c 3463 1a3e 27c6 703e
00000190: 5a0e d03d feee 31be 99e3 123e 9b92 29bd
000001a0: 6cbc 503e f0ae 13bd b23f 1a3c 50bb 09bc
000001b0: d2a9 b6bd 1710 723e 42f0 21be 17b0 9c3d
000001c0: 4def 4fbe 831d 493e 1269 c93d 708b e9bc
000001d0: 0f50 1cbe 0139 b3bd 94de 7ebe 98ee bb3e
000001e0: 3fc3 893e 6550 933e acd9 ab3d c9a0 eabd
000001f0: b1f3 c0bd 5dfa 6e3e 763b c63c 78c5 943e
00000200: ccfe 06be 4b9b 86be 6827 e63a 9b45 ff3d
00000210: 829e aebd a95f 4c3e ca55 083d 176a 04bd
00000220: 209f 443e 644d 193e 72c3 86be 9d66 713d
00000230: f29e ca3c 4654 ea3d 4cc1 0f3e a71f abbe
00000240: 6a10 92be 2293 703d 4174 9a3e dd26 ac3d
00000250: 76a9 57be 7c14 ff3d 13e0 40be 2cf3 603e
00000260: deb0 b0bd 8c76 b2be 51e0 2fbb 451e 023d
00000270: 6804 22be b08c 513e af95 33be a331 bdbb
00000280: 1683 80be aef0 9c3e 4811 b2bd 5af2 a3bd
00000290: 660c f8bc 2894 58bb fef1 08be a6f2 57bd
000002a0: f18d b23d 1bfe 5f3e fee7 cf3d dbd2 693e
000002b0: 917b 5d3e 6835 59bd 51c3 08be 778c 933e
000002c0: 9e93 22be 0c4a 38be c4a5 09be ea37 693e
000002d0: 0b59 e4bc b0e8 c7bd 0ae9 2f3d 83f4 693d
000002e0: 9d33 87be 559e 9fbe 537b 213e f962 163e
000002f0: 10f2 8abe bc48 02be 0486 483b 8f03 ac3d
00000300: fe0e 9d3d c482 7dbe ec51 58be 2c0f 133e
00000310: ad3c 0e3e ccd8 ecbb fa03 d9bd 99f3 a13e
00000320: 21af 48bd ae09 263c e1ac 933d 7e53 54be
00000330: b799 cabd 392d 513e d031 97be 55b8 883d
00000340: 4dbf 41be efb4 25be 4dd0 733e 8b33 82be
00000350: 5a58 fb3d 2503 fd3c 7d42 773e d2f3 263e
00000360: 1c54 1ebe 2a47 a23e b377 b7bd 18df 83be
00000370: 342b 8d3e 3d20 7a3e db30 40be 27f6 86be
00000380: 07d7 96bd e174 b23c 3a56 00be 7727 26bb
00000390: 14d9 353e 13b6 51bd c195 8c3e 7b99 093e
000003a0: e4da 383e dec0 d7bd d0a9 913e 029f 143e
000003b0: 2ff9 9bbc dac0 04be 20e0 a93e d416 263d
000003c0: 940d 1b3d 0b75 f1bd ad9a 1a3d 5def 1f3e
000003d0: 46c5 863e b701 d33d 44f6 ef3d be83 52be
000003e0: 14f4 993e cf77 bf3d ac48 2e3e 0632 80be
000003f0: 2d50 873d 943f 94bd f267 a7be 0f61 373e
-0.18042536 0.2383929 0.010255659 0.08170822 -0.14122517 -0.119099855 -0.27038842 -0.006711958
-0.3377179 -0.002916553 0.08999261 0.15076062 -0.03139387 -0.07563336 -0.018930005 0.22036548
0.010957187 0.16497861 0.029668959 -0.10861649 0.11501267 0.02838531 -0.19033083 0.04738043
0.18891047 -0.20209616 -0.12304475 0.03405364 -0.022998678 -0.18244979 -0.0030707498 0.21857625
-0.1435997 -0.14069788 -0.20649949 0.21295981 -0.0052023 0.004451684 -0.16243593 -0.23581955
0.10992465 0.05837188 -0.038227476 0.1077608 0.13961837 0.1220757 -0.07601245 -0.0064210175
0.03619308 -0.21661153 -0.16747619 -0.20649774 -0.2518457 0.077189535 -0.19251151 0.049953472
-0.030524483 -0.063876286 0.2595111 -0.10811939 -0.08924479 0.067561835 -0.12146047 -0.17205085
0.15661919 -0.21500145 0.076515876 0.10038028 -0.36535358 -0.14437042 -0.16207623 -0.1975618
0.054204796 0.2546859 -0.034219403 0.3108226 0.16854267 -0.03157766 0.0846282 0.07593389
-0.27223462 0.0039457907 -0.09083617 0.04942448 0.30431986 0.22357245 0.21063875 0.054689005
-0.11773991 0.10244929 -0.025537599 -0.06853833 0.18342346 0.0815599 -0.21344121 0.10819537
0.26082402 0.01437853 0.15076905 0.23513089 0.10158987 -0.17376325 0.14344634 -0.04139958
0.20384377 -0.036055505 0.0094146 -0.008406475 -0.089191094 0.2363895 -0.15814307 0.07650774
-0.2030613 0.19640164 0.09834494 -0.028508872 -0.15264915 -0.08751107 -0.24889594 0.3670547
0.26906773 0.28772274 0.08391127 -0.114564486 -0.094214804 0.23337694 0.024198275 0.29056907
-0.13183135 -0.26290354 0.0017559351 0.12464448 -0.08526327 0.19958366 0.03328494 -0.032327738
0.19201326 0.14970928 -0.26320988 0.05893575 0.024733994 0.11441855 0.1403858 -0.33422586
-0.28528148 0.058734067 0.3016682 0.0840585 -0.21060738 0.12455079 -0.18835478 0.21967763
-0.08627485 -0.3485607 -0.0026836584 0.03176715 -0.15821993 0.20463824 -0.17537569 -0.0057737394
-0.2510001 0.30652374 -0.086947024 -0.08005209 -0.03027935 -0.0033047292 -0.13373563 -0.052721642
0.087184794 0.21874277 0.10151671 0.22834341 0.21629168 -0.053029448 -0.13355757 0.28818104
-0.15876624 -0.17996997 -0.13442141 0.22775236 -0.02787449 -0.097611785 0.042946853 0.05711795
-0.26406565 -0.31175485 0.157697 0.14686193 -0.27137804 -0.12723058 0.0030597458 0.08399116
0.07668875 -0.24756914 -0.21125 0.14361256 0.13890333 -0.0072279926 -0.105964616 0.31631163
-0.04899514 0.010134144 0.072107084 -0.20734975 -0.098926 0.20427407 -0.2953019 0.066757835
-0.18920632 -0.16182302 0.23809929 -0.2542995 0.12272711 0.030885288 0.24146457 0.16303948
-0.15461773 0.3169492 -0.08958378 -0.25756145 0.27572024 0.2442636 -0.18768637 -0.26359674
-0.07365232 0.021784248 -0.12532893 -0.0025353113 0.1775859 -0.05119903 0.27458003 0.13437454
0.1805225 -0.10534833 0.2844987 0.14513782 -0.019039718 -0.12964192 0.33178806 0.040549114
0.037854746 -0.11789902 0.037745167 0.15618654 0.26322383 0.103030615 0.11716893 -0.20558068
0.3006903 0.093490236 0.1701991 -0.25038165 0.06607089 -0.07238689 -0.3269649 0.17908119

linear2.weight f4 [3, 256]
00000000: 1136 d43d feb8 9c3d 2627 39be 12cb 2cbe
00000010: 61e5 f7bd 289c 753e 59f9 373d a537 723e
00000020: 2491 fa3c 8ad7 54bb 6195 9cbd 7914 863d
00000030: 1d20 9abd 8a5f 58be 4e6c 7b3d 7046 1bbe
00000040: 3f58 9d3c 1781 873d 078f f63d 51fc 1abe
00000050: 6d91 c1bd b7da d83d 0008 d73d 9194 56bc
00000060: e552 09be 6eb3 febd 94f2 f13d e9b4 ebbd
00000070: f7c1 f03d 8d37 0abe e296 3d3e 2c26 26bd
00000080: a894 14be 91f7 f9bd 356c fdbd 11c6 01bd
00000090: 58d5 f23d 5fb2 26be fd9a 6abe b28a fabc
000000a0: 15f8 aebd 259a 71be ba38 0ebe bed1 7e3d
000000b0: 1e1e 063e 3572 15be ca38 153e ac8a 17be
000000c0: 9817 3dbe c45b a83b 3498 073e 6118 333d
000000d0: 5e18 cf3c af2c cdbd dbee 05be e9b8 313e
000000e0: c91e 1ebe 83a9 223e 0773 e4bd e62f 4c3d
000000f0: d76e 9d3d 65e1 163d be2f 77be c6aa b1bd
00000100: 9e4f 7dbd 3eb8 743d 39e2 4e3d 8cce 7c3d
00000110: ce7b 653b 2e73 823d a6b5 923c 2b82 833d
00000120: e56c c03d 0c07 383d 0f02 60bc 1047 d23d
00000130: 0616 013e a988 92bb deb0 d53c 69a2 e2bd
00000140: c134 f9bb 5aff 1abe 5ecf 47bd ecfc 28be
00000150: 37f9 bfbd 986a 37be 106e c5bd 7760 aa3d
00000160: c091 8d3d febd c9bd dcaa 143e 3184 293d
00000170: 074e 9d3d cf2a 58be 84b0 71bd f858 bb3c
00000180: e0c3 8d3d be12 63bd f6f6 03bf b5b0 83bd
00000190: aaeb 533d 34e4 78be 67bf 8fbd 7ebc f0bd
000001a0: 9d43 1cbe 9a96 f9bd f647 213c c22e 6b3c
000001b0: feef 0dbd 9216 ecbd d404 a33d 60f2 e4bc
000001c0: 57b2 86be 560b 27bd 9167 7b3c 4605 4bbe
000001d0: e3e5 73be 5742 d2bc ce9e 3bbd 5938 9d3c
000001e0: e7c2 533e 22d2 3a3d 2dcb a5bc cf7c 22be
000001f0: 8bd8 0f3c 8b32 09bd 874d 873d 3a3a a3bd
00000200: e0ce e0bb 03a4 51be 4db8 01be 1e7f 4fbe
00000210: 3098 4c3e 7402 01be c99e d63d 53d6 14be
00000220: f43e 05be 120e a7bd 9051 913d 346c 453d
00000230: c62b 87bd dbc8 bbbd 8042 40bd e081 6abc
00000240: f444 573d 5988 96bd 7712 0ebd c2da 8c3d
00000250: 7191 143c a211 3fbc 908d 14be 5377 dfbd
00000260: 6987 9a3d 4ccf bebd 680b 5a3d de53 dbbd
00000270: 1409 a93d 8e65 11be 7f26 53bd 45fd dabd
00000280: b992 703d 3d51 dabd cff2 9cbb 3ebe 8fbd
00000290: ccd8 0bbe 605c fbbc 4fa0 49be b7ed f5bd
000002a0: f8ac 16be b0b8 a8bd 4c0c f63d c8e6 3f3e
000002b0: a0c6 74bd 8ee7 b23d 4c21 c23c 49bb 5dbd
000002c0: 66c2 883a 14fd 983a 9d6c 203c 9835 0c3e
000002d0: c10e 3c3d b440 09be 6b27 23be 40ee 013e
000002e0: 51af 423d 66e8 c23c 78db 223e fb4d 4dbd
000002f0: 2739 53bd eec6 c03b f6b0 163e 8133 1f3d
00000300: 25d3 233e 94a1 1b3d 4101 31be 2e4d 85bb
00000310: 5d31 3dbe 80c4 30bd 20ed 783e e4d9 303d
00000320: c301 85bd 785f d1bd 0fa9 1bbe 47d1 e7bd
00000330: 11ce 193e 6024 bdbd 59da 2dbc 05b6 b83d
00000340: 057a b4be 18df 3fbe c15e 283d 6945 7b3d
00000350: 6324 93bd e62a 94bc 487b c2bd 97bd 04be
00000360: 5f63 4fbe 917d 2f3d 6196 5dbd 76a3 7d3c
00000370: 5ff2 a7bd 8e81 cfbc 7680 56bd 3e35 423e
00000380: 020c f23d 7c2f 13bd 89d5 4abe 8ffe 07be
00000390: 83bf 89bd 613a cc3d 8133 17be a17a 9f3d
000003a0: f33f 6bbd 4cba f33c 4c84 613d 64e1 853d
000003b0: 3d7c 8cbd 4675 e33d f83c c6bd e015 bb3d
000003c0: 1b10 4b3d a192 0cbe 8ac1 b2be 8811 343e
000003d0: 9888 1cbe c558 5b3d abfc 0a3e 2ba9 debc
000003e0: c6ec 08be 19ef 2a3e 08a5 20be 68db a9bc
000003f0: 52f3 9fbd 3cec cabd 0440 623d b715 94bd
0.10361875 0.07652472 -0.1808134 -0.1687434 -0.121042974 0.2398535 0.04491553 0.23654039
0.030586787 -0.0032477104 -0.07645679 0.065468736 -0.07525656 -0.21130195 0.061382584 -0.15163589
0.019207118 0.06616419 0.12038999 -0.15135314 -0.09451566 0.105885915 0.10499573 -0.013096944
-0.13410528 -0.12436567 0.11813846 -0.11509115 0.11755746 -0.13497753 0.18514588 -0.040563747
-0.14509833 -0.12205423 -0.123741545 -0.03168303 0.11857098 -0.1627898 -0.22910686 -0.030583713
-0.08543412 -0.23593958 -0.13888827 0.062211744 0.13097426 -0.14594348 0.14572445 -0.14798993
-0.18466032 0.0051378924 0.13241655 0.04372442 0.025280174 -0.10018288 -0.13079397 0.17355694
-0.15441431 0.15884976 -0.11154752 0.049850367 0.07687157 0.036836047 -0.24139306 -0.086751506
-0.061843507 0.05974602 0.05050871 0.061720416 0.003501642 0.06369625 0.017908882 0.06421312
0.0939577 0.044928595 -0.013672366 0.1026746 0.12606058 -0.0044718576 0.026085313 -0.110661335
-0.0076051657 -0.15136471 -0.048781745 -0.16502732 -0.09373706 -0.17911756 -0.096401334 0.083191805
0.06912565 -0.09850691 0.14518303 0.041385833 0.07680898 -0.2111008 -0.05900623 0.022869572
0.06922126 -0.055437796 -0.5154871 -0.064301886 0.05173842 -0.24305803 -0.07018929 -0.11754702
-0.15260167 -0.12186928 0.009843817 0.01435441 -0.034652703 -0.115277424 0.07959905 -0.027947605
-0.26307938 -0.040782295 0.015344516 -0.1982623 -0.23818164 -0.025666399 -0.045805745 0.019191908
0.20679818 0.045610555 -0.020238483 -0.15867923 0.008779655 -0.033495467 0.06606584 -0.0797009
-0.006860599 -0.20472722 -0.12667961 -0.20263335 0.1997993 -0.12598592 0.104795046 -0.14534883
-0.13012296 -0.081569806 0.07095635 0.048198894 -0.06600146 -0.091691695 -0.04693842 -0.014313191
0.052555993 -0.07350225 -0.03468558 0.06877662 0.009067879 -0.011661919 -0.14507127 -0.10911431
0.07545359 -0.093168825 0.053233534 -0.10709356 0.08253685 -0.14198896 -0.051550385 -0.106928386
0.058733676 -0.10660026 -0.004789687 -0.07018708 -0.1365692 -0.030683696 -0.19690059 -0.12008231
-0.1471442 -0.08238351 0.12014064 0.1874038 -0.059759736 0.08735572 0.023697518 -0.054133687
0.0010433912 0.0011672103 0.00979152 0.1369232 0.045912508 -0.13403589 -0.15933006 0.12688541
0.047530476 0.023792457 0.15904033 -0.050123196 -0.051568177 0.0058830893 0.14715943 0.038867477
0.15998514 0.03799589 -0.17285635 -0.0040680384 -0.18475862 -0.043156147 0.24309206 0.043176547
-0.06494477 -0.10223287 -0.1520121 -0.11319213 0.15020014 -0.092354536 -0.01061114 0.090190925
-0.35249344 -0.18737447 0.04110599 0.06134549 -0.071846746 -0.018086862 -0.0949617 -0.12962948
-0.20252751 0.04284436 -0.05409849 0.015480867 -0.082005255 -0.025330331 -0.052368604 0.18965623
0.118186966 -0.035933957 -0.1980802 -0.132807 -0.06725981 0.099720724 -0.14765741 0.077870615
-0.057434034 0.02975192 0.05505781 0.065371305 -0.06859634 0.111063525 -0.096795976 0.09135032
0.049575906 -0.1372781 -0.34913284 0.17584813 -0.15286481 0.053551454 0.13572948 -0.027180275
-0.13371572 0.16692771 -0.15687954 -0.020734504 -0.078100815 -0.099083394 0.05523683 -0.07230704

linear2.bias f4 [3]
00000000: 20e0 59bc 60d1 76bd 8102 20bd
-0.0132980645 -0.06025827 -0.039064888
