model/model.pth (torch, 17609 bytes, 4 tensors)

linear1.weight f4 [256, 11]
000000 2c 29 f8 3c 3a 57 9a 3d d3 0f 35 be 23 c5 20 3e
       0.03029307 0.075361684 -0.17681818 0.15700202
000010 e8 d2 5d 3e 05 22 71 be 9f f5 05 3e d1 dc 3f be
       0.21662486 -0.23548134 0.13081978 -0.18736579
000020 20 87 85 be 17 b5 e9 3d c2 7b 30 3e d4 f1 c6 bd
       -0.26079655 0.11411493 0.1723471 -0.09714094
000030 2d 4a 7c 3e a8 d3 41 be c7 db 82 be 8a 33 67 be
       0.24637671 -0.18928397 -0.25558302 -0.22578254
000040 6e c4 0c bd 48 da 10 bd 8d e4 2e be 82 ee 81 be
       -0.034367017 -0.03536442 -0.17079373 -0.2537728
000050 73 17 ae bd d6 6a 23 bd 7f b4 19 be 9e 6a 99 bb
       -0.08500566 -0.03989681 -0.1501026 -0.004681899
000060 7c 5c 0b 3e e8 40 5f be 56 55 79 3e 89 ed 67 bc
       0.13609499 -0.21802104 0.2434896 -0.014155754
000070 d0 1b 75 3d ba 71 5e 3e e8 94 98 3d 0f 6b 09 3e
       0.059840977 0.2172307 0.074502766 0.13419746
000080 11 d3 25 3e 70 06 3d be d2 3f 0d 3d c6 46 c4 bd
       0.16193797 -0.18459487 0.034484692 -0.095838115
000090 a2 51 d9 bd 0b 29 28 bd 94 68 1e 3e 92 e6 8c 3e
       -0.10611273 -0.041054767 0.15469581 0.2751966
0000a0 89 ab ea 3d 64 3d 69 3d 46 ad 13 be 78 86 dd 3d
       0.11458499 0.056943312 -0.14421567 0.108166635
0000b0 63 ff 96 3e 7b 28 95 be 7b 3a e2 3b aa aa 23 3e
       0.2949172 -0.29132447 0.006903944 0.15983072
0000c0 3b b3 69 3e 32 2d f7 3d a1 dc e5 3d 73 0b 31 be
       0.22822277 0.12069167 0.11223722 -0.17289524
0000d0 a8 0a 7e be 07 54 01 bd b9 ce 13 3e e0 65 56 3e
       -0.24808753 -0.031574275 0.14434327 0.209373
0000e0 1b 15 30 be 70 f0 13 3d b5 8a 08 be ae 19 2d be
       -0.17195551 0.03611797 -0.13334163 -0.16904327
0000f0 dc e3 88 be 11 e1 87 be d1 ba 62 3e f1 d9 08 be
       -0.26736343 -0.265389 0.22141577 -0.13364388
000100 01 50 49 3e 10 b7 8b be 10 05 5e 3e 7f 2d 91 3b
       0.19659425 -0.27288103 0.21681619 0.0044304724
000110 d0 09 69 be cf 9f c6 bc 5f ca 84 3d e4 83 49 3e
       -0.2275765 -0.024246125 0.06483912 0.19679219
000120 9e ed 11 be dd 7f 46 be 6a 61 7d 3e b9 ba a1 be
       -0.142508 -0.19384713 0.24744192 -0.3158777
000130 b1 bc 0c be 06 7b 9c bd 80 cc 6a bc 8c a4 8c bd
       -0.13743855 -0.07640652 -0.014330983 -0.06867322
000140 84 4f 8b be 63 f7 32 bd 3f 97 88 be 9f 57 cf bd
       -0.27209103 -0.043692958 -0.26677892 -0.10124134
000150 10 07 07 3d 30 05 7a 3e 00 90 ae b9 23 74 fe 3d
       0.03296572 0.24416041 -0.00033295155 0.12424495
000160 0a 89 6a bc 98 83 9b bd 90 92 89 3e f8 11 40 be
       -0.014314899 -0.07593459 0.2686963 -0.18756855
000170 ea 24 1a 3e 5f d0 04 3e b0 0c ad bd d8 bc 57 3d
       0.15053144 0.12970112 -0.084496856 0.05267033
000180 04 38 9c bc e2 c9 55 bd 11 d1 ce bd c0 48 57 bc
       -0.01906968 -0.052194484 -0.1009847 -0.013139904
000190 8e e6 2c 3e a0 64 39 bc ac bc 63 3e f0 78 58 be
       0.16884825 -0.011315495 0.22239941 -0.21139884
0001a0 84 17 4c be e8 d3 2b bd 80 21 2a bc c0 d0 db bb
       -0.19930845 -0.041950136 -0.010383964 -0.0067082345
0001b0 fe 4c 75 be ca 4f 53 be 5e 26 35 be 37 83 4d 3e
       -0.23955151 -0.20635906 -0.17690417 0.20069586
0001c0 9e 47 49 3e 02 1a 06 be 60 37 93 3d 61 c4 46 be
       0.19656226 -0.13095859 0.07188296 -0.1941085
0001d0 06 44 ad 3d 10 8d 79 be 56 86 07 be 6e 34 02 be
       0.0846024 -0.24370217 -0.13234839 -0.12715313
0001e0 1b e4 34 3e f6 15 53 3d 47 eb 46 be f0 54 8e 3e
       0.1766514 0.051534615 -0.19425689 0.27799177
0001f0 6c 59 57 3b 53 63 8f 3d dd 40 69 be 17 cf 2c 3e
       0.0032859696 0.070013665 -0.2277865 0.16875874
000200 d2 87 48 bd 33 5f 50 3e 8d d1 39 bd 87 08 24 3e
       -0.048957653 0.20348816 -0.04536586 0.16018878
000210 9a 88 c7 bd 7c 98 eb 3d 9b 67 4f be 12 1e 91 be
       -0.097428516 0.115036935 -0.20254366 -0.28343254
000220 83 39 4a 3d 08 87 23 be 19 54 9f bd ce 81 91 be
       0.049371254 -0.15969479 -0.07779712 -0.28419346
000230 2a ec 33 be ba d9 73 3e e2 34 80 3e 00 f0 7c bb
       -0.17570558 0.23813525 0.25040346 -0.00385952
000240 26 d0 32 be 47 fe 7e 3e 90 13 75 3d dc 1f eb 3d
       -0.17462215 0.24901687 0.05983311 0.11480686
000250 29 e6 90 3e 47 bf 42 3e c6 08 5b be 73 71 83 be
       0.28300598 0.19018279 -0.21390066 -0.25672492
000260 90 76 ce 3b 9c 15 59 be fb 2e 3c 3e 35 e1 0f be
       0.006300755 -0.2119965 0.18377297 -0.14050753
000270 62 22 57 be e8 c3 9c bd 1e 79 4d be b8 df f2 bc
       -0.2100921 -0.07654554 -0.20065734 -0.029647693
000280 5c 88 4f 3e 0d 33 77 3e ba 83 d1 bd ab 71 3e 3e
       0.2026686 0.24140568 -0.10230203 0.18598048
000290 c6 13 89 be ab 32 48 bd de a3 31 bd b3 53 8f bd
       -0.26772898 -0.048876446 -0.043369167 -0.06998386
0002a0 8a 6d 92 3e 77 58 51 3d ff d2 d7 bc b9 cf ca bd
       0.28599197 0.051109757 -0.026345728 -0.09902901
0002b0 f1 46 8a 3e c6 3e d4 3d 2c 61 57 be fb 1c 83 3e
       0.2700725 0.103635356 -0.21033162 0.25608048
0002c0 b4 6e 2b 3c 29 ee 35 3e 96 1e f6 3d ef 75 11 3e
       0.010463405 0.17766632 0.120175526 0.14205144
0002d0 3b fd d2 3d b2 62 fa bc 49 80 22 3e 70 56 91 3e
       0.10302206 -0.03056464 0.1586925 0.2838626
0002e0 63 6c 5d 3e 61 3f 6d be dd 78 3e 3e 96 1d 67 3e
       0.21623378 -0.23168708 0.18600793 0.2256988
0002f0 2c 62 99 be 9f 3a 08 be 8e fe 2b 3e 36 99 01 3d
       -0.29957712 -0.13303612 0.16796324 0.031640254
000300 92 c4 91 3d 42 5e e6 bc 36 34 a8 bd ed 81 51 bc
       0.07117571 -0.028121118 -0.082130834 -0.012787324
000310 a3 cb 70 3e a2 7e e3 bc e0 15 45 3e ba d2 87 3e
       0.23515181 -0.027770344 0.19246626 0.2652796
000320 60 94 5d 3d f0 83 63 be 92 64 79 3d 2f 06 9a be
       0.05409658 -0.22218299 0.060886927 -0.30082843
000330 fa f5 d4 bd 27 53 45 bd 7f 60 99 be b7 f4 1b 3d
       -0.10398479 -0.048175003 -0.29956433 0.038075175
000340 cf c9 71 3e 80 5e 01 3e f8 99 94 be 14 f0 86 bb
       0.2361214 0.12633705 -0.2902372 -0.004117975
000350 4c d1 30 be 6b 2f 52 bd 94 81 dc 3d b3 4a 34 3d
       -0.1726734 -0.051314753 0.107669026 0.04401655
000360 06 19 4c 3d 0f 58 b6 bd 52 ee 0f b9 87 39 22 3e
       0.04982855 -0.089035146 -0.00013726324 0.15842257
000370 7d 39 1b be ba 53 f0 3c 7e f0 ce bd 6d dd 19 3e
       -0.15158649 0.029336799 -0.10104464 0.15025873
000380 8a 44 01 3e 32 51 1b bd 40 d7 8e 3e 6a 6e 2b 3c
       0.12623802 -0.03791923 0.27898598 0.0104633365
000390 35 4e 2c 3e e2 6d 69 be 99 a7 4d 3e 7f 91 60 bd
       0.16826709 -0.22795823 0.20083465 -0.054826256
0003a0 96 83 96 be 85 d5 2d 3e 09 a3 06 3e d4 fe 5a 3e
       -0.29397267 0.16975982 0.1314813 0.21386272
0003b0 fa 49 5b 3e c5 02 68 3e 3e 7f 33 bc 50 b3 86 3e
       0.21414939 0.22657306 -0.01095563 0.2630868
0003c0 25 22 98 be 13 47 64 3e 92 27 93 be b0 ce b7 bd
       -0.2971355 0.22292738 -0.28741127 -0.089749694
0003d0 c0 e0 f7 3c 05 48 12 bd 24 cd 96 be 66 f3 08 be
       0.030258536 -0.035713214 -0.29453385 -0.13374099
0003e0 bd 2c 28 be 40 ed 5b bd 8b 54 87 be c2 50 32 3e
       -0.16423316 -0.053693056 -0.2643169 0.17413619
0003f0 78 fd 0a be e0 47 b9 bd 1f 86 7a 3e e9 c4 26 be
       -0.13573253 -0.09046912 0.24465226 -0.16286053

linear1.bias f4 [256]
000000 70 2e 8c 3e 91 bd 5d 3e 94 dc 0b 3e 44 89 e8 3d
       0.2737918 0.21654345 0.13658363 0.11354306
000010 2f 3a 89 3c a8 e3 15 be d2 78 1f bb f4 63 9a be
       0.016751377 -0.14637625 -0.002433349 -0.30154383
000020 c9 50 95 be 41 2e 7c be 0f 6a a9 bd 90 3f a9 bd
       -0.29163197 -0.2462702 -0.08272182 -0.08264077
000030 a3 e6 b7 3d e9 76 0b be ee f8 6e 3e 66 bd 84 be
       0.08979537 -0.1361958 0.23337147 -0.2592575
000040 5e db 80 be 97 99 c3 bc a3 6e b2 bd cc 76 9e bd
       -0.25167364 -0.023876948 -0.087125085 -0.077375025
000050 d8 82 47 be f0 89 25 3e 3d 76 12 be 13 d5 4c 3e
       -0.19483507 0.161659 -0.14302917 0.20003156
000060 db 9c 93 3e 8d e1 64 3d 98 27 95 3d 2e e4 76 3e
       0.2883061 0.055879164 0.072829425 0.24110481
000070 18 3e 9a be 88 90 8c 3e 4f e0 5b be 1d d1 05 3e
       -0.301255 0.2745402 -0.21472286 0.13068052
000080 60 31 e6 bd e4 0f f7 bc 3a 57 0d bd ae 76 6f 3e
       -0.11239886 -0.030158944 -0.034507014 0.23385116
000090 53 c7 36 3e ea 37 cd 3d 0f 5a 68 3e f0 cd 41 be
       0.17849474 0.100204304 0.22690605 -0.18926215
0000a0 9e 43 47 be 8f 01 39 3e 76 92 33 3d 6f b1 30 3e
       -0.19459388 0.18067001 0.043840848 0.17255186
0000b0 3a d8 92 be 69 d8 62 be d8 ac 30 be 02 f2 43 3e
       -0.28680593 -0.22152866 -0.17253435 0.19135287
0000c0 3e dd e2 3d bf 14 b5 bc b1 68 65 bd 4e 7b a6 3e
       0.11077355 -0.02210462 -0.056008045 0.3251595
0000d0 35 ea e0 3d 29 8f 89 3d 7e 3e 2a 3e d2 91 f0 3d
       0.109821714 0.06716759 0.16625401 0.11746563
0000e0 c3 30 17 3e 0e 4a 47 be d9 27 67 be 47 a7 e2 bc
       0.14764695 -0.19461843 -0.22573794 -0.027667655
0000f0 46 b8 f6 3d fb 12 a2 3e 52 02 89 3e e3 b7 2e 3e
       0.12046866 0.31655106 0.26759583 0.17062335
000100 c3 fd 0c bd 53 84 52 3e a7 8c 2a be de b4 f3 3c
       -0.034421694 0.2055829 -0.16655217 0.02974933
000110 3f 64 e2 bd 64 13 7b be 00 08 97 be 9e 01 b0 3d
       -0.11054277 -0.24519116 -0.2949829 0.085940585
000120 73 c3 3e be b4 64 0b be b2 1d ee 3c 68 d9 13 3d
       -0.18629245 -0.13612634 0.029066894 0.036096007
000130 14 b7 52 be b0 31 63 3e d3 99 90 be 30 5c 85 3e
       -0.20577651 0.22186923 -0.2824236 0.26046896
000140 9d 17 79 be cc 06 47 be 3e 0a 2f bd 6a fc a1 3d
       -0.24325414 -0.19436187 -0.042734377 0.07909472
000150 76 48 27 3e a5 c3 95 be 3c 47 e7 bd b7 45 77 3d
       0.16336235 -0.29250827 -0.11292884 0.06036922
000160 13 59 2c 3e 7a 14 60 3d f9 b9 01 be 62 72 38 3e
       0.16830854 0.054707028 -0.12668599 0.18012384
000170 32 f2 6b 3e d0 ae 7d be 21 5a f1 3b 2b 16 83 3e
       0.23041609 -0.24773717 0.0073654805 0.2560285
000180 97 f1 84 be c2 2e 90 3e b3 6d 85 be ea b8 8a bc
       -0.25965568 0.28160673 -0.26060256 -0.016933877
000190 69 90 cd bd c0 e8 1f 3e 35 2a 13 be 6e 0c 48 bb
       -0.1003731 0.15616131 -0.1437157 -0.0030524987
0001a0 54 63 7f be c0 97 6f 3d c3 7b 79 be 99 b6 8b 3e
       -0.24940234 0.05849433 -0.24363618 0.27287748
0001b0 1a c4 04 3e bb f7 72 3e ac f7 95 be ef 43 3a 3e
       0.12965432 0.23727314 -0.2929052 0.18189977
0001c0 46 1c c4 bd 2d ed 2f 3d 05 67 01 3e 3e 0b 33 be
       -0.09575705 0.042950798 0.12636955 -0.17484757
0001d0 31 01 ba 3c 7a 08 bb bd 98 56 3a bb fd 0b e6 3d
       0.022705646 -0.09132476 -0.0028432962 0.11232755
0001e0 0a 4b 59 bc c7 01 bd bd 2d 5a 15 3e c0 6e 4d be
       -0.01326252 -0.092288546 0.1458518 -0.20061779
0001f0 a8 cd 88 3e e2 19 5c 3e 29 d6 85 bd 17 10 9a be
       0.26719403 0.21494249 -0.065349884 -0.300904
000200 a4 91 88 be 3f a4 e9 bd f9 0c 30 3e 9f 6a 93 3d
       -0.26673615 -0.114082806 0.17192449 0.07198071
000210 7f c2 47 3e ab c2 8f 3e f0 8f d5 3d da 2f 7a 3e
       0.19507788 0.28078207 0.104278445 0.24432316
000220 28 40 6e bd ff a5 a5 bd 42 dc 49 be 80 68 0e be
       -0.058166653 -0.08088302 -0.19712928 -0.13907051
000230 9c 20 ac bd 32 54 73 3e 8c 9d f1 3d 48 92 d8 bd
       -0.08404657 0.23762587 0.11797628 -0.10574776
000240 e7 8a 9c bc 99 f7 f4 bd 31 44 a0 be 5c 12 24 bd
       -0.019109203 -0.11961288 -0.31302026 -0.04005657
000250 16 7d f9 bd bf a2 23 be 7b 34 92 3e ea bb a0 3e
       -0.121820614 -0.15980051 0.28555664 0.31393367
000260 99 32 99 bd 3f 21 1a be 8a 00 1f be 59 bc 96 3e
       -0.07480354 -0.15051745 -0.1552755 0.29440573
000270 58 0e 82 3d dd 80 73 bd 1c 50 4b bc 1f ac 81 3c
       0.06350392 -0.059449065 -0.012409236 0.015829144
000280 c4 c8 27 be 45 53 d5 bd 4c b9 49 be 57 07 c4 3d
       -0.1638518 -0.10416273 -0.19699591 0.095717125
000290 99 ba 79 3c bf aa 43 3d e2 84 64 3c 31 5f 87 be
       0.015242242 0.047770258 0.013947697 -0.26439813
0002a0 f8 de db bd ad 18 03 be ab 2d 89 3e fc 8d 6b 3e
       -0.10735887 -0.12802382 0.26792654 0.23003381
0002b0 97 e0 02 be ad 5f 6a be 13 0f 22 be 5d b3 04 be
       -0.12780987 -0.2288806 -0.15826063 -0.12959047
0002c0 26 5e 95 be 63 d8 98 bd 99 b0 be bc 15 9b 70 bd
       -0.29173392 -0.074631475 -0.023277568 -0.058741648
0002d0 86 d5 1d bd 2c 7a 58 be 2a 64 6e 3e 2e 50 e6 bd
       -0.03853371 -0.21140355 0.23280397 -0.11245762
0002e0 66 1d 71 3b cb e9 1e 3e 03 3e 73 3e 6e c7 06 3e
       0.0036791204 0.15518872 0.23754124 0.13162014
0002f0 ac a3 6d be db eb c6 3c 7b a1 5c be 8d ae a2 3c
       -0.23206967 0.024282387 -0.21545975 0.019858623
000300 ce 67 ed bc e3 96 61 3e 7e 88 9c 3e 14 5c 94 3d
       -0.028980162 0.22030215 0.30572885 0.07244125
000310 c7 a1 81 be 1d a5 52 3c 08 e1 41 3d 52 72 1c 3d
       -0.2531874 0.012856749 0.047333747 0.03819496
000320 9e d5 1d bb 4c 5d 54 3e 1a 3c 84 bd 70 e9 8b 3d
       -0.0024083625 0.20738715 -0.06456776 0.06831634
000330 e2 7d 32 be 2d 34 f1 3d 48 fd b9 bd d7 4a 4a be
       -0.17430833 0.1177753 -0.09081513 -0.19755112
000340 fd e4 f7 bd e7 73 85 be 12 ac 91 bd ef 00 e5 bd
       -0.12104223 -0.2606499 -0.07112898 -0.11181819
000350 2f 08 b6 bd 01 2c 17 3e 84 4c 3c 3e 21 66 90 be
       -0.0888828 0.1476288 0.18388563 -0.28202918
000360 2a 7c 8b be c4 65 68 be 74 ff 70 3e 2e a3 53 be
       -0.27243167 -0.2269507 0.23534948 -0.20667717
000370 eb 05 e1 bd 85 e1 5d 3d 3c 3b 30 be 62 e2 34 3e
       -0.10987457 0.05417015 -0.17210096 0.17664483
000380 04 9c 50 3e fc 92 8d 3e b0 5e 7f bd bd 7d b4 bc
       0.20372015 0.27651203 -0.06234616 -0.022032613
000390 dc 59 26 3e 78 b7 45 3e 59 86 86 bd f5 71 17 3e
       0.16245216 0.19308269 -0.065685935 0.14789565
0003a0 6d 90 29 3e 9d a1 99 bd 92 65 99 bc 2f e8 30 be
       0.16559 -0.075015284 -0.01872519 -0.17276071
0003b0 3e 8b 42 be 5a d5 40 3e 06 c3 51 3e 8d c5 d4 3d
       -0.18998429 0.18831387 0.20484552 0.10389242
0003c0 8c e3 08 3e 3f f7 90 3d 94 18 46 bc f3 63 60 3d
       0.13368052 0.070784084 -0.012090821 0.05478282
0003d0 63 df 60 be 57 dd b6 bc ea ce 37 3e 65 83 71 3e
       -0.21960215 -0.02232234 0.17950025 0.2358528
0003e0 f4 d1 2c 3e 13 62 88 bd 8e ab 36 be 63 9b 42 be
       0.16876966 -0.06659331 -0.1783888 -0.19004588
0003f0 0c 24 63 3e 2c f2 25 3e 4a 74 45 bd 71 4b 42 be
       0.2218172 0.16205662 -0.048206605 -0.18974091

linear2.weight f4 [3, 256]
000000 51 d7 13 3c c3 f7 2a 3c 7d 76 fe bc 7e 95 1a bc
       0.009023503 0.010435048 -0.031062359 -0.009435056
000010 ef 6d 28 bc db d8 5d 3d 4b 63 92 bd cd 27 0e bd
       -0.010280116 0.054161888 -0.07147845 -0.034705926
000020 71 d6 25 3d 6c 16 8b bc 79 61 48 bc ea 9b 2e bd
       0.04048771 -0.016978465 -0.012230271 -0.04262916
000030 2d 71 4b bc 1b 46 38 3d 73 28 3f 3d 49 bc 92 bb
       -0.01241712 0.044988733 0.046669435 -0.0044780117
000040 54 d3 e0 3b 6d 45 ff 3c 8e 6b 23 bd fd 66 94 bd
       0.00686113 0.031161034 -0.039897494 -0.07246206
000050 7e 11 ff bb 99 26 fe bc 7c 17 40 3d 47 83 77 bd
       -0.0077840677 -0.031024264 0.046897396 -0.06042793
000060 2d 23 61 bd c0 dc 63 bd 4e 44 ca bb 42 17 d0 bc
       -0.054965187 -0.055630445 -0.0061726933 -0.025401715
000070 6f 1b 7b bc 2a a2 10 bd 3e d5 a5 3d eb 60 41 bd
       -0.015326365 -0.0353109 0.08097313 -0.04721157
000080 85 b3 28 bb 95 72 3d bd a2 7b 06 bd d5 c9 b3 bc
       -0.0025741768 -0.046251852 -0.03283275 -0.021946827
000090 20 86 21 bd aa ea b4 3c 4b 82 9a bc 28 d1 81 bd
       -0.039434552 0.022084553 -0.018860957 -0.063387215
0000a0 b0 f2 49 bd e7 f9 5d 3d c2 93 74 3d dd 17 33 3b
       -0.04930371 0.054193404 0.059711225 0.0027327456
0000b0 35 46 17 bd d1 a5 57 3d 35 5d 42 bd 3c 74 27 3d
       -0.03693219 0.05264837 -0.04745217 0.040882334
0000c0 07 b5 3e bd 70 8f 31 bd 49 69 16 3d 05 66 ea bc
       -0.04655936 -0.043349683 0.0367215 -0.0286131
0000d0 33 0b 5d 3c b5 08 03 3d 5e 8f 86 bd 41 97 4b 3c
       0.01349144 0.031990726 -0.06570314 0.012426198
0000e0 16 7b 1b bc 16 5e 2f bd 95 16 21 bd 04 52 65 bd
       -0.009489795 -0.042814337 -0.039328177 -0.05598642
0000f0 5b 36 12 bc 38 69 ca bc aa 3f 3e bd 23 c1 93 bd
       -0.008924092 -0.024708375 -0.046447434 -0.07214572
000100 d3 8f 19 3d 2d 22 3f bc 7c 51 f4 3b a8 eb ab bd
       0.037490677 -0.011665863 0.0074560028 -0.08394557
000110 3a 30 2f 3d 50 fa b9 bc de 78 92 bc 6f 13 97 bc
       0.0427706 -0.022702366 -0.0178799 -0.018441884
000120 b0 13 6e 3c da e5 92 3d 2d 7a 97 3a 2f 94 80 bd
       0.014531061 0.07172747 0.0011556797 -0.06278264
000130 b7 82 62 bd 38 75 61 3d 21 70 8d bc ec 04 2a bd
       -0.05530044 0.05504343 -0.017265381 -0.0415086
000140 88 f0 7d bc e8 a7 63 3d 9e 9d 08 3c b0 16 e9 bc
       -0.015499242 0.05558005 0.00833836 -0.028453201
000150 4c 44 9e 3c 2c 4c b6 3c e5 a4 15 bd 7f 9e 0b bd
       0.019319676 0.022253118 -0.03653421 -0.0340867
000160 c8 96 8b 3b fd ac 42 3c 5c 13 74 39 bc 80 1b 3d
       0.004259918 0.011882064 0.00023276865 0.037964568
000170 19 b5 63 3c 78 c8 d3 3c db 95 b4 3c c1 79 b9 bc
       0.0138981575 0.025852427 0.022044113 -0.022641065
000180 67 c2 3c bd dd 0c 43 bd 98 a5 13 bc 14 f9 33 3d
       -0.046083834 -0.04761969 -0.009011649 0.04393871
000190 c0 34 47 3d 9e 36 3d bd 6b 11 80 3c 7c bc 31 3d
       0.04863429 -0.046194665 0.015633306 0.043392643
0001a0 c8 72 10 bd fa 78 7f 3d 74 e0 33 3d a8 0e f0 bc
       -0.035265714 0.06237123 0.043915227 -0.029303864
0001b0 f9 5f 93 bd 5f 09 8f bb c7 70 64 3d 30 e4 b9 bc
       -0.0719604 -0.004365131 0.055771615 -0.022691816
0001c0 71 7d 01 bd 9a a8 41 bd 16 73 65 bd 58 55 e4 bc
       -0.03161377 -0.04727993 -0.056017958 -0.027872726
0001d0 45 3e 66 3c 27 78 25 3d 58 6b 35 3d e4 26 b6 bb
       0.014052932 0.04039779 0.044291824 -0.0055588353
0001e0 22 6f 0e bd de 5d dc 3c 46 f3 58 bd 20 7c c6 bb
       -0.034773953 0.026900228 -0.05296638 -0.0060572773
0001f0 ee 94 d2 3a 9b a8 8a 3c f3 a5 1a bb 07 cc f0 bc
       0.0016066113 0.0169261 -0.0023597449 -0.029394163
000200 9a ee 0a bd dc d8 e3 3b 68 7a 70 bd 67 5e 3d bd
       -0.033918954 0.006953342 -0.058710486 -0.046232607
000210 ad f0 f8 3b 3e e7 1b bd 43 54 84 bd 5c 1a fe 3b
       0.00759705 -0.038062327 -0.06461384 0.007754607
000220 92 53 52 3d 48 e6 00 3d 1f dd 29 3d 5e 02 70 bb
       0.05134923 0.031469613 0.041470643 -0.0036622505
000230 62 21 8e bc f7 8a 43 3c d0 e0 76 bb 0f 27 ca 3b
       -0.017349903 0.011934987 -0.003767062 0.006169207
000240 66 53 44 bd ae ad fa 3c d7 54 07 3d a9 9b 29 bc
       -0.047931097 0.030600395 0.033039894 -0.010352054
000250 25 cb c3 bc a5 c4 16 bd b1 94 49 bd 3e 66 ee bc
       -0.023900578 -0.03680863 -0.04921407 -0.029101487
000260 14 c6 5b 3d 0f a6 39 bd aa 8c 04 bd 79 20 8b bd
       0.0536557 -0.04532438 -0.03236071 -0.06793303
000270 61 a6 2e 3d 11 b7 cb 3c ad c4 a6 3c 57 a1 43 3b
       0.04263914 0.024867566 0.020357454 0.0029850805
000280 e0 6f 4b 3c 6c 12 18 bd f4 ae ab 3c b5 03 33 3d
       0.01241681 -0.037126943 0.020957448 0.043704707
000290 95 6b b6 3c 42 88 07 bd 3b d2 94 3b 40 a4 83 bb
       0.022268096 -0.03308893 0.004541663 -0.004017383
0002a0 83 28 7a bc 5f b6 16 bd e3 62 2a bd 75 8e fe 3c
       -0.015268448 -0.036795016 -0.041598212 0.031073788
0002b0 be 47 bc bc bc 03 99 3d 52 ce d3 3c 84 fd e1 bc
       -0.022983428 0.074714154 0.025855217 -0.027586706
0002c0 50 88 07 3c be b8 83 3d 60 56 16 bd 7b 8a 6b bd
       0.0082722455 0.06431721 -0.036703467 -0.057505112
0002d0 86 24 89 3d 64 0c 65 bd 0f 00 c6 bc f1 1b b4 bc
       0.066964194 -0.05592002 -0.02416995 -0.02198598
0002e0 ad 17 71 bc bb 6d 51 bd f3 6c 81 bb 98 c0 19 bd
       -0.014715117 -0.051130038 -0.0039497553 -0.037537187
0002f0 ec ad 56 bc ca 35 ea bc b6 3a 39 3c 78 3a 4b 3d
       -0.01310299 -0.028590102 0.011305502 0.049616307
000300 10 d3 47 bc 38 c4 85 bd 10 ef 87 bd ff d5 8e bd
       -0.012196317 -0.065315664 -0.066373944 -0.0697441
000310 da fc 29 bd 6c a0 27 3d 81 d7 94 bd 42 52 e4 3c
       -0.041500904 0.040924475 -0.072676666 0.027871255
000320 07 d3 fe bc 38 82 9d bd 42 76 cb 3c 5c 90 32 bd
       -0.031106485 -0.07690853 0.024836663 -0.043594703
000330 61 4b c3 bc d2 5d cb 3c 27 97 9d bd 6e 2a d7 3b
       -0.023839654 0.02482501 -0.07694846 0.0065663373
000340 c3 92 93 3d fe 3c 5c 3d 74 95 c8 bc 7d 4b 29 bd
       0.07205727 0.053769104 -0.024485327 -0.041331757
000350 47 b9 99 bc d9 52 a4 bc 6b c3 22 bd 7e a3 1b bd
       -0.018765105 -0.020059036 -0.039737146 -0.037997715
000360 98 9c 52 bc 4c 81 16 bd 83 29 89 3c f4 65 fe 3c
       -0.012854718 -0.0367444 0.016743427 0.031054474
000370 6a e3 75 bd 52 2f c1 3c 14 b2 d0 bc c1 0d 4d bd
       -0.060031332 0.023582134 -0.02547554 -0.050061945
000380 86 1a 2b ba 44 5b 03 bd d1 0f 76 bd 77 bd ba 3b
       -0.00065270846 -0.03206946 -0.060073677 0.0056988555
000390 8b b2 2c 3d 3a e1 19 bd 3f 00 0c bd 7c 52 0a 3d
       0.04216246 -0.03756831 -0.034179922 0.03377007
0003a0 65 45 f3 3c 10 63 85 bd fc 36 30 3d 5a c6 26 3d
       0.029696176 -0.06513035 0.043021187 0.040716507
0003b0 1c aa f9 3b cf cc 6e bd 78 87 21 bc ad 16 11 bb
       0.0076191556 -0.05830079 -0.009858958 -0.002213876
0003c0 e7 44 28 bc 6e 61 b0 3a e9 19 6e 3b fe 90 f7 3b
       -0.010270334 0.0013456771 0.0036331362 0.007555126
0003d0 ca d5 93 bc 98 10 18 3d 3a 8e 41 bd 6f 78 2d 3c
       -0.018046279 0.0371252 -0.04725478 0.010587796
0003e0 8c a0 ce bc c1 aa 37 3c 72 ae bb 3c 41 58 24 bd
       -0.02522304 0.0112101445 0.02291033 -0.040123228
0003f0 3e 76 b5 bc 12 5a cc 3b e2 9d 66 3d d0 4d 3a 3d
       -0.022151109 0.006236323 0.056302913 0.045484364

linear2.bias f4 [3]
000000 2c 2a 36 bb 68 68 1e 3d 29 8c a7 bd
       -0.0027796132 0.03867379 -0.0818103
